…
del = AutoModelForCausalLM.from_pretrained(model_name,\n                                             attn_implementation='eager',\n                                             device_map=\"auto\")\nmodel.resize_token_embeddings(len(tokenizer))\nmodel.to(torch.bfloat16)\n\n\n\n\nThe new embeddings will be initialized from a multivariate normal distribution that has old embeddings' mean and covariance. As described in this article: https://nlp.stanford.edu/~johnhew/vocab-expansion.html. To disable this, use `mean_resizing=False`\n\n\nGemma2ForCausalLM(\n  (model): Gemma2Model(\n    (embed_tokens): Embedding(256008, 2304, padding_idx=0)\n    (layers): ModuleList(\n      (0-25): 26 x Gemma2DecoderLayer(\n        (self_attn): Gemma2Attention(\n          (q_proj): Linear(in_features=2304, out_features=2048, bias=False)\n          (k_proj): Linear(in_features=2304, out_features=1024, bias=False)\n          (v_proj): Linear(in_features=2304, out_features=1024, bias=False)\n          (o_proj): Linear(in_features=2048, out_features=2304, bias=False)\n          (rotary_emb): Gemma2RotaryEmbedding()\n        )\n        (mlp): Gemma2MLP(\n          (gate_proj): Linear(in_features=2304, out_features=9216, bias=False)\n          (up_proj): Linear(in_features=2304, out_features=9216, bias=False)\n          (down_proj): Linear(in_features=9216, out_features=2304, bias=False)\n          (act_fn): PytorchGELUTanh()\n        )\n        (input_layernorm): Gemma2RMSNorm((2304,), eps=1e-06)\n        (pre_feedforward_layernorm): Gemma2RMSNorm((2304,), eps=1e-06)\n        (post_feedforward_layernorm): Gemma2RMSNorm((2304,), eps=1e-06)\n        (post_attention_layernorm): Gemma2RMSNorm((2304,), eps=1e-06)\n      )\n    )\n    (norm): Gemma2RMSNorm((2304,), eps=1e-06)\n  )\n  (lm_head): Linear(in_features=2304, out_features=256008, bias=False)\n)\n\n\n\n\n\nThis is we are going to define the parameter of our adapter. Those a the most important parameters in LoRA as they define the size and importance of the adapters we are training.\n\nfrom peft import LoraConfig\n\n# TODO: Configure LoRA parameters\n# r: rank dimension for LoRA update matrices (smaller = more compression)\nrank_dimensi
…
AutoModelForCausalLM.from_pretrained(config.base_model_name_or_path,\n                                             device_map=\"auto\",\n                                             )\ntokenizer = AutoTokenizer.from_pretrained(peft_model_id)\nmodel.resize_token_embeddings(len(tokenizer))\nmodel = PeftModel.from_pretrained(model, peft_model_id)\nmodel.to(torch.bfloat16)\nmodel.eval()\n\n\n\n\n\n\n\n\n\n\n\n\n\n\n\n\n\n\n\nPeftModelForCausalLM(\n  (base_model): LoraModel(\n    (model): Gemma2ForCausalLM(\n      (model): Gemma2Model(\n        (embed_tokens): lora.Embedding(\n          (base_layer): Embedding(256006, 2304, padding_idx=0)\n          (lora_dropout): ModuleDict(\n            (default): Dropout(p=0.05, inplace=False)\n          )\n          (lora_A): ModuleDict()\n          (lora_B): ModuleDict()\n          (lora_embedding_A): ParameterDict(  (default): Parameter containing: [torch.cuda.BFloat16Tensor of size 16x256006 (cuda:0)])\n          (lora_embedding_B): ParameterDict(  (default): Parameter containing: [torch.cuda.BFloat16Tensor of size 2304x16 (cuda:0)])\n          (lora_magnitude_vector): ModuleDict()\n        )\n        (layers): ModuleList(\n          (0-25): 26 x Gemma2DecoderLayer(\n            (self_attn): Gemma2Attention(\n              (q_proj): lora.Linear(\n                (base_layer): Linear(in_features=2304, out_features=2048, bias=False)\n                (lora_dropout): ModuleDict(\n                  (default): Dropout(p=0.05, inplace=False)\n                )\n                (lora_A): ModuleDict(\n                  (default): Linear(in_features=2304, out_features=16, bias=False)\n                )\n                (lora_B): ModuleDict(\n                  (default): Linear(in_features=16, out_features=2048, bias=False)\n                )\n                (lora_embedding_A): ParameterDict()\n                (lora_embedding_B): ParameterDict()\n                (lora_magnitude_vector): ModuleDict()\n              )\n              (k_proj): lora.Linear(\n                (base_layer): Linear(in_features=2304, out_features=1024, bias=False)\n                (lora_dropout): ModuleDict(\n                  (default): Dropout(p=0.05, inplace=False)\n                )\n                (lora_A): ModuleDict(\n                  (default): Linear(in_features=2304, out_features=16, bias=False)\n                )\n                (lora_B): ModuleDict(\n                  (default): Linear(in_features=16, out_features=1024, bias=False)\n                )\n                (lora_embedding_A): ParameterDict()\n                (lora_embedding_B): ParameterDict()\n                (lora_magnitude_vector): ModuleDict()\n              )\n              (v_proj): lora.Linear(\n                (base_layer): Linear(in_features=2304, out_features=1024, bias=False)\n                (lora_dropout): ModuleDict(\n                  (default): Dropout(p=0.05, inplace=False)\n                )\n                (lora_A): ModuleDict(\n                  (default): Linear(in_features=2304, out_features=16, bias=False)\n                )\n                (lora_B): ModuleDict(\n                  (default): Linear(in_features=16, out_features=1024, bias=False)\n                )\n                (lora_embedding_A): ParameterDict()\n                (lora_embedding_B): ParameterDict()\n                (lora_magnitude_vector): ModuleDict()\n              )\n              (o_proj): lora.Linear(\n                (base_layer): Linear(in_features=2048, out_features=2304, bias=False)\n                (lora_dropout): ModuleDict(\n                  (default): Dropout(p=0.05, inplace=False)\n                )\n                (lora_A): ModuleDict(\n                  (default): Linear(in_features=2048, out_features=16, bias=False)\n                )\n                (lora_B): ModuleDict(\n                  (default): Linear(in_features=16, out_features=2304, bias=False)\n                )\n                (lora_embedding_A): ParameterDict()\n                (lora_embedding_B): ParameterDict()\n                (lora_magnitude_vector): ModuleDict()\n              )\n              (rotary_emb): Gemma2RotaryEmbedding()\n            )\n            (mlp): Gemma2MLP(\n              (gate_proj): lora.Linear(\n                (base_layer): Linear(in_features=2304, out_features=9216, bias=False)\n                (lora_dropout): ModuleDict(\n                  (default): Dropout(p=0.05, inplace=False)\n                )\n                (lora_A): ModuleDict(\n                  (default): Linear(in_features=2304, out_features=16, bias=False)\n                )\n                (lora_B): ModuleDict(\n                  (default): Linear(in_features=16, out_features=9216, bias=False)\n                )\n                (lora_embedding_A): ParameterDict()\n                (lora_embedding_B): ParameterDict()\n                (lora_magnitude_vector): ModuleDict()\n              )\n              (up_proj): lora.Linear(\n                (base_layer): Linear(in_features=2304, out_features=9216, bias=False)\n                (lora_dropout): ModuleDict(\n                  (default): Dropout(p=0.05, inplace=False)\n                )\n                (lora_A): ModuleDict(\n                  (default): Linear(in_features=2304, out_features=16, bias=False)\n                )\n                (lora_B): ModuleDict(\n                  (default): Linear(in_features=16, out_features=9216, bias=False)\n                )\n                (lora_embedding_A): ParameterDict()\n                (lora_embedding_B): ParameterDict()\n                (lora_magnitude_vector): ModuleDict()\n              )\n              (down_proj): lora.Linear(\n                (base_layer): Linear(in_features=9216, out_features=2304, bias=False)\n                (lora_dropout): ModuleDict(\n                  (default): Dropout(p=0.05, inplace=False)\n                )\n                (lora_A): ModuleDict(\n                  (default): Linear(in_features=9216, out_features=16, bias=False)\n                )\n                (lora_B): ModuleDict(\n                  (default): Linear(in_features=16, out_features=2304, bias=False)\n                )\n                (lora_embedding_A): ParameterDict()\n                (lora_embedding_B): ParameterDict()\n                (lora_magnitude_vector): ModuleDict()\n              )\n              (act_fn): PytorchGELUTanh()\n            )\n            (input_layernorm): Gemma2RMSNorm((2304,), eps=1e-06)\n            (pre_feedforward_layernorm): Gemma2RMSNorm((2304,), eps=1e-06)\n            (post_feedforward_layernorm): Gemma2RMSNorm((2304,), eps=1e-06)\n            (post_attention_layernorm): Gemma2RMSNorm((2304,), eps=1e-06)\n          )\n        )\n        (norm): Gemma2RMSNorm((2304,), eps=1e-06)\n      )\n      (lm_head): lora.Linear(\n        (base_layer): Linear(in_features=2304, out_features=256006, bias=False)\n        (lora_dropout): ModuleDict(\n          (default): Dropout(p=0.05, inplace=False)\n        )\n        (lora_A): ModuleDict(\n          (default): Linear(in_features=2304, out_features=16, bias=False)\n        )\n        (lora_B): ModuleDict(\n          (default): Linear(in_features=16, out_features=256006, bias=False)\n        )\n        (lora_embedding_A): ParameterDict()\n        (lora_embedding_B): ParameterDict()\n        (lora_magnitude_vector): ModuleDict()\n      )\n    )\n  )\n)\n\n\n\nprint(dataset[\"test\"][8][\"text\"])\n\n&lt;bos&gt;&lt;start_of_turn&gt;human\nYou are a function calling AI model. You are provided with function signatures within &lt;to
…
del = AutoModelForCausalLM.from_pretrained(model_name,\n                                             attn_implementation='eager',\n                                             device_map=\"auto\")\nmodel.resize_token_embeddings(len(tokenizer))\nmodel.to(torch.bfloat16)\n\n\n\n\nThe new embeddings will be initialized from a multivariate normal distribution that has old embeddings' mean and covariance. As described in this article: https://nlp.stanford.edu/~johnhew/vocab-expansion.html. To disable this, use `mean_resizing=False`\n\n\nGemma2ForCausalLM(\n  (model): Gemma2Model(\n    (embed_tokens): Embedding(256008, 2304, padding_idx=0)\n    (layers): ModuleList(\n      (0-25): 26 x Gemma2DecoderLayer(\n        (self_attn): Gemma2Attention(\n          (q_proj): Linear(in_features=2304, out_features=2048, bias=False)\n          (k_proj): Linear(in_features=2304, out_features=1024, bias=False)\n          (v_proj): Linear(in_features=2304, out_features=1024, bias=False)\n          (o_proj): Linear(in_features=2048, out_features=2304, bias=False)\n          (rotary_emb): Gemma2RotaryEmbedding()\n        )\n        (mlp): Gemma2MLP(\n          (gate_proj): Linear(in_features=2304, out_features=9216, bias=False)\n          (up_proj): Linear(in_features=2304, out_features=9216, bias=False)\n          (down_proj): Linear(in_features=9216, out_features=2304, bias=False)\n          (act_fn): PytorchGELUTanh()\n        )\n        (input_layernorm): Gemma2RMSNorm((2304,), eps=1e-06)\n        (pre_feedforward_layernorm): Gemma2RMSNorm((2304,), eps=1e-06)\n        (post_feedforward_layernorm): Gemma2RMSNorm((2304,), eps=1e-06)\n        (post_attention_layernorm): Gemma2RMSNorm((2304,), eps=1e-06)\n      )\n    )\n    (norm): Gemma2RMSNorm((2304,), eps=1e-06)\n  )\n  (lm_head): Linear(in_features=2304, out_features=256008, bias=False)\n)",
    "crumbs": [
      "fc_agent NOTES",
      "FC_AGENT 👀"
    ]
  },
  {
    "objectID": "index.html#lora",
    "href": "index.html#lora",
    "title": "FC_AGENT 👀",
    "section": "",
    "text": "This is we are going to define the parameter of our adapter. Those a the most important parameters in LoRA as they define the size and importance
…
